Models/modelV3.tflite (tflite, 617512 bytes, 35 tensors)

tfl.pseudo_qconst1 i1 [4, 1, 1, 576]
000000 d6 2f 00 04 ee 1c f6 61 30 cb 0f e9 fd a6 22 b0
       -42 47 0 4 -18 28 -10 97 48 -53 15 -23 -3 -90 34 -80
000010 33 a2 f8 26 43 c5 17 3e ee 4b e5 02 cf 06 c3 1b
       51 -94 -8 38 67 -59 23 62 -18 75 -27 2 -49 6 -61 27
000020 fa dc 40 28 25 f2 de 33 46 3c db ce 17 fd 1d 2c
       -6 -36 64 40 37 -14 -34 51 70 60 -37 -50 23 -3 29 44
000030 e4 4b c3 fb b5 44 b3 16 13 01 0d ac 18 3b f8 40
       -28 75 -61 -5 -75 68 -77 22 19 1 13 -84 24 59 -8 64
000040 da 0c 35 25 12 b4 21 d1 12 18 f3 0e 0d 3c 15 d2
       -38 12 53 37 18 -76 33 -47 18 24 -13 14 13 60 21 -46
000050 db 1c ef 2d e6 16 f3 3b 28 11 eb fc de 26 b7 0d
       -37 28 -17 45 -26 22 -13 59 40 17 -21 -4 -34 38 -73 13
000060 28 1f 14 ae be 1a f2 c1 e3 38 01 c2 f8 4a fb 53
       40 31 20 -82 -66 26 -14 -63 -29 56 1 -62 -8 74 -5 83
000070 bb f4 1c 00 e0 fe ca 07 1a 49 26 0b 08 d3 01 c7
       -69 -12 28 0 -32 -2 -54 7 26 73 38 11 8 -45 1 -57
000080 0f f7 1e d4 d7 0e 25 a9 01 0b 92 c7 f0 21 04 f7
       15 -9 30 -44 -41 14 37 -87 1 11 -110 -57 -16 33 4 -9
000090 e2 10 e3 33 e2 c8 04 f8 fe 01 1e ea f6 56 c5 cd
       -30 16 -29 51 -30 -56 4 -8 -2 1 30 -22 -10 86 -59 -51
0000a0 32 25 30 ed ee 08 ea f2 1e 37 12 ac f6 39 da c0
       50 37 48 -19 -18 8 -22 -14 30 55 18 -84 -10 57 -38 -64
0000b0 dd 44 da f2 f7 1f f7 02 44 1b c8 fd 03 1d 14 d7
       -35 68 -38 -14 -9 31 -9 2 68 27 -56 -3 3 29 20 -41
0000c0 cc d6 cd 15 ed 57 12 c1 08 f5 f0 1f ef e3 26 22
       -52 -42 -51 21 -19 87 18 -63 8 -11 -16 31 -17 -29 38 34
0000d0 17 fc ad 42 a9 ff b3 43 0f d8 12 43 19 13 c3 f0
       23 -4 -83 66 -87 -1 -77 67 15 -40 18 67 25 19 -61 -16
0000e0 b4 fc 0f cf ca 1a fe da 16 bd be ce df 28 93 2a
       -76 -4 15 -49 -54 26 -2 -38 22 -67 -66 -50 -33 40 -109 42
0000f0 1c f5 10 f0 b2 1f 81 ed e9 13 de 12 30 ea 40 c2
       28 -11 16 -16 -78 31 -127 -19 -23 19 -34 18 48 -22 64 -62

tfl.pseudo_qconst3 i1 [576, 1, 1, 96]
000000 32 06 a6 06 14 ea d0 0a b7 0a ec b7 81 f6 fc c3
       50 6 -90 6 20 -22 -48 10 -73 10 -20 -73 -127 -10 -4 -61
000010 05 e8 4a bf 2d ff eb 11 44 bd c7 be f6 c1 0c d6
       5 -24 74 -65 45 -1 -21 17 68 -67 -57 -66 -10 -63 12 -42
000020 2f 07 d6 ed 16 5d 04 45 22 0a 66 08 d8 f7 28 f7
       47 7 -42 -19 22 93 4 69 34 10 102 8 -40 -9 40 -9
000030 bb f7 12 14 10 ed 2e 15 bb b8 02 41 1a 1f 2b be
       -69 -9 18 20 16 -19 46 21 -69 -72 2 65 26 31 43 -66
000040 dc ed 30 3a f3 cc fd 13 12 d1 09 2a c4 ee e4 63
       -36 -19 48 58 -13 -52 -3 19 18 -47 9 42 -60 -18 -28 99
000050 d1 27 01 f8 3f e8 dc 50 bf d3 e1 3e e2 37 da 1b
       -47 39 1 -8 63 -24 -36 80 -65 -45 -31 62 -30 55 -38 27
000060 e4 17 0e 7d 1a ed 47 09 2f d1 a1 c0 c8 25 f2 15
       -28 23 14 125 26 -19 71 9 47 -47 -95 -64 -56 37 -14 21
000070 10 e5 06 e1 d5 b1 e2 24 bd 05 2f bf ce de 1a e7
       16 -27 6 -31 -43 -79 -30 36 -67 5 47 -65 -50 -34 26 -25
000080 1f 25 fc 40 49 00 df e3 a5 0d 3f d7 e4 f1 bd 3a
       31 37 -4 64 73 0 -33 -29 -91 13 63 -41 -28 -15 -67 58
000090 00 fc b4 6c 35 39 be d6 24 17 d1 e0 0d 1b 10 3a
       0 -4 -76 108 53 57 -66 -42 36 23 -47 -32 13 27 16 58
0000a0 09 0e 05 e7 e9 7f f7 f9 1d 2d c6 e1 ea 68 c6 01
       9 14 5 -25 -23 127 -9 -7 29 45 -58 -31 -22 104 -58 1
0000b0 52 f9 fd 03 e6 ea 10 2d 0f 24 fb 16 f5 fa d6 5b
       82 -7 -3 3 -26 -22 16 45 15 36 -5 22 -11 -6 -42 91
0000c0 bf 35 f3 48 d7 fd dc 25 e0 cf 0c df e5 81 00 20
       -65 53 -13 72 -41 -3 -36 37 -32 -49 12 -33 -27 -127 0 32
0000d0 05 c8 b5 01 33 1b f9 4e 57 b8 61 3a 3e de 2a 49
       5 -56 -75 1 51 27 -7 78 87 -72 97 58 62 -34 42 73
0000e0 31 0a e7 84 35 3e f3 67 32 e1 67 fc e8 f4 0f ce
       49 10 -25 -124 53 62 -13 103 50 -31 103 -4 -24 -12 15 -50
0000f0 13 ed c1 46 d4 5f d7 00 23 f2 c1 e6 c1 19 fb 31
       19 -19 -63 70 -44 95 -41 0 35 -14 -63 -26 -63 25 -5 49

tfl.pseudo_qconst5 i1 [96, 1, 1, 576]
000000 30 03 ff c2 e9 30 1b 90 f0 fe 4d e8 e1 45 15 db
       48 3 -1 -62 -23 48 27 -112 -16 -2 77 -24 -31 69 21 -37
000010 12 14 d7 3e c1 ca e3 0a 00 4f 55 08 f2 dd 17 49
       18 20 -41 62 -63 -54 -29 10 0 79 85 8 -14 -35 23 73
000020 06 c4 e6 39 c4 26 db d8 c9 0e e9 d6 e6 f1 ee ff
       6 -60 -26 57 -60 38 -37 -40 -55 14 -23 -42 -26 -15 -18 -1
000030 3c 1e e2 b9 8a d6 db 14 42 32 1f 06 fe f8 ec e7
       60 30 -30 -71 -118 -42 -37 20 66 50 31 6 -2 -8 -20 -25
000040 1b ec 31 26 26 a8 f0 34 12 ff ec 1c be 1f 29 f5
       27 -20 49 38 38 -88 -16 52 18 -1 -20 28 -66 31 41 -11
000050 11 12 36 e7 02 fd fa 0c db 1d 25 41 7f 1a 56 03
       17 18 54 -25 2 -3 -6 12 -37 29 37 65 127 26 86 3
000060 02 f0 07 0e ab fe 14 2f db f8 2d 01 53 51 29 eb
       2 -16 7 14 -85 -2 20 47 -37 -8 45 1 83 81 41 -21
000070 13 eb d7 e5 02 b2 0d 14 eb f6 f0 c7 e1 12 e3 07
       19 -21 -41 -27 2 -78 13 20 -21 -10 -16 -57 -31 18 -29 7
000080 26 0d 00 e1 1a f3 0e 1b e1 13 df 46 f9 f1 02 f1
       38 13 0 -31 26 -13 14 27 -31 19 -33 70 -7 -15 2 -15
000090 fa 26 04 04 fc d3 13 0a f4 f8 b2 08 23 fd f3 18
       -6 38 4 4 -4 -45 19 10 -12 -8 -78 8 35 -3 -13 24
0000a0 df cf 35 fd a6 b5 00 f6 cf 42 ca 06 28 f9 0f db
       -33 -49 53 -3 -90 -75 0 -10 -49 66 -54 6 40 -7 15 -37
0000b0 c8 12 3b 08 de c2 06 f4 39 05 07 30 04 31 c2 f0
       -56 18 59 8 -34 -62 6 -12 57 5 7 48 4 49 -62 -16
0000c0 e2 ec 36 ed ba 02 29 0b ff f8 1f 41 bf f0 3c 13
       -30 -20 54 -19 -70 2 41 11 -1 -8 31 65 -65 -16 60 19
0000d0 fc 26 0f f7 f0 13 1d 23 c7 07 2c 13 22 db f3 12
       -4 38 15 -9 -16 19 29 35 -57 7 44 19 34 -37 -13 18
0000e0 f2 f0 17 66 19 1c 0b 27 f1 db f3 f9 1b b9 21 fb
       -14 -16 23 102 25 28 11 39 -15 -37 -13 -7 27 -71 33 -5
0000f0 02 00 bf 03 1f e7 bd ee 55 25 d8 da 08 d7 34 f5
       2 0 -65 3 31 -25 -67 -18 85 37 -40 -38 8 -41 52 -11

tfl.pseudo_qconst7 i1 [1, 3, 3, 576]
000000 d6 19 14 18 09 df 13 0a c6 11 05 1f 1e 01 2e af
       -42 25 20 24 9 -33 19 10 -58 17 5 31 30 1 46 -81
000010 c4 0a 2b 1d 09 aa 06 ee 3a eb 46 a9 07 56 d4 10
       -60 10 43 29 9 -86 6 -18 58 -21 70 -87 7 86 -44 16
000020 46 30 ea f5 27 3a 47 d9 17 0f 13 cd e7 18 26 ed
       70 48 -22 -11 39 58 71 -39 23 15 19 -51 -25 24 38 -19
000030 c0 0b da da f0 2e ba 1a 81 b5 37 29 26 f9 ee 1e
       -64 11 -38 -38 -16 46 -70 26 -127 -75 55 41 38 -7 -18 30
000040 a1 a8 90 f8 94 42 ed fb 1c fe 8c 18 38 1a 89 71
       -95 -88 -112 -8 -108 66 -19 -5 28 -2 -116 24 56 26 -119 113
000050 10 f2 14 5b 34 a4 9e 55 14 19 0d ed af f8 12 25
       16 -14 20 91 52 -92 -98 85 20 25 13 -19 -81 -8 18 37
000060 14 1c e0 31 32 e4 15 20 3d eb de eb f1 2e c9 e2
       20 28 -32 49 50 -28 21 32 61 -21 -34 -21 -15 46 -55 -30
000070 25 27 1e 13 18 28 81 18 3b fb 28 2b 1a a7 4e b8
       37 39 30 19 24 40 -127 24 59 -5 40 43 26 -89 78 -72
000080 ff 12 21 c6 15 22 11 aa 0f 09 31 fa 1b 87 8b 27
       -1 18 33 -58 21 34 17 -86 15 9 49 -6 27 -121 -117 39
000090 0b f5 0f 18 16 17 1d 29 8c f3 a2 0d 19 5a fa 82
       11 -11 15 24 22 23 29 41 -116 -13 -94 13 25 90 -6 -126
0000a0 17 18 35 2b 08 fc e5 16 34 8b 4b fb 09 21 f2 34
       23 24 53 43 8 -4 -27 22 52 -117 75 -5 9 33 -14 52
0000b0 a1 df 24 05 06 1c 3a 16 19 10 b5 6d 20 15 c1 28
       -95 -33 36 5 6 28 58 22 25 16 -75 109 32 21 -63 40
0000c0 c1 f4 f0 fa fd af 03 0b 04 12 06 1a bf 26 00 0d
       -63 -12 -16 -6 -3 -81 3 11 4 18 6 26 -65 38 0 13
0000d0 28 c7 ca 4c 31 db 49 42 1f 58 0f db e3 01 09 fd
       40 -57 -54 76 49 -37 73 66 31 88 15 -37 -29 1 9 -3
0000e0 f9 04 2a e2 12 ba 27 90 26 e2 27 11 13 d6 f2 1c
       -7 4 42 -30 18 -70 39 -112 38 -30 39 17 19 -42 -14 28
0000f0 aa dc 15 0b ac 26 c6 1f 58 42 c5 2d ac c6 fd 0f
       -86 -36 21 11 -84 38 -58 31 88 66 -59 45 -84 -58 -3 15

tfl.pseudo_qconst9 i1 [576, 1, 1, 96]
000000 fb 5b c4 d1 fb 21 0f c4 f8 bf 0f ef 6c 26 e9 06
       -5 91 -60 -47 -5 33 15 -60 -8 -65 15 -17 108 38 -23 6
000010 4b 3a ff fe f1 01 dd 38 10 e5 13 11 43 7e 4f 21
       75 58 -1 -2 -15 1 -35 56 16 -27 19 17 67 126 79 33
000020 c5 8d b2 fe de 15 c4 6e d6 50 ff cf 7f 44 05 d9
       -59 -115 -78 -2 -34 21 -60 110 -42 80 -1 -49 127 68 5 -39
000030 c3 bb 43 fc 01 f5 37 5b d9 2a fa d6 e3 11 24 0f
       -61 -69 67 -4 1 -11 55 91 -39 42 -6 -42 -29 17 36 15
000040 0a 3f 65 2a 3c 0d d6 f1 e2 f1 43 b6 13 c3 e7 2d
       10 63 101 42 60 13 -42 -15 -30 -15 67 -74 19 -61 -25 45
000050 0b cf 27 20 3b d6 18 e1 fc fe 2f f8 d0 f1 0d 89
       11 -49 39 32 59 -42 24 -31 -4 -2 47 -8 -48 -15 13 -119
000060 4a 2c 01 19 0d f0 e2 29 b4 d1 0d f1 d5 fa 26 cc
       74 44 1 25 13 -16 -30 41 -76 -47 13 -15 -43 -6 38 -52
000070 fe da cc dd b2 3b 27 c7 1f df 27 e5 ce 81 50 56
       -2 -38 -52 -35 -78 59 39 -57 31 -33 39 -27 -50 -127 80 86
000080 eb 2f e1 1e 23 ae cb 11 45 d2 0d bf 99 3e 09 eb
       -21 47 -31 30 35 -82 -53 17 69 -46 13 -65 -103 62 9 -21
000090 e5 25 2a 1e 3a 1e e0 29 01 c2 01 be fe 1e 22 f3
       -27 37 42 30 58 30 -32 41 1 -62 1 -66 -2 30 34 -13
0000a0 06 b6 5d 56 16 4a 34 dc b7 0f 1c 04 ca cd 05 5a
       6 -74 93 86 22 74 52 -36 -73 15 28 4 -54 -51 5 90
0000b0 01 28 d3 25 fb ea 31 47 c5 dc 13 b9 ca d1 c4 06
       1 40 -45 37 -5 -22 49 71 -59 -36 19 -71 -54 -47 -60 6
0000c0 0b 92 f4 e5 0b fb d3 0f e7 29 09 21 9c e9 0e ec
       11 -110 -12 -27 11 -5 -45 15 -25 41 9 33 -100 -23 14 -20
0000d0 d7 f5 0b b4 49 ec d8 22 0a 16 e0 d7 ff ca f3 08
       -41 -11 11 -76 73 -20 -40 34 10 22 -32 -41 -1 -54 -13 8
0000e0 f3 16 e5 48 dd f3 11 8e 55 d9 7f e0 24 23 19 cf
       -13 22 -27 72 -35 -13 17 -114 85 -39 127 -32 36 35 25 -49
0000f0 f3 96 27 ef 16 02 4d 38 e7 b8 26 11 d0 17 e4 f6
       -13 -106 39 -17 22 2 77 56 -25 -72 38 17 -48 23 -28 -10

tfl.pseudo_qconst11 i1 [96, 1, 1, 576]
000000 18 d2 1a ed d3 fe f4 0b f3 16 d1 0a 1e cd ff 1e
       24 -46 26 -19 -45 -2 -12 11 -13 22 -47 10 30 -51 -1 30
000010 05 e9 fe e9 21 f8 01 fd eb e0 18 ff cc 6d 01 1c
       5 -23 -2 -23 33 -8 1 -3 -21 -32 24 -1 -52 109 1 28
000020 f0 15 22 0f 0e 14 e9 0b 01 10 0a fb f5 2b 03 11
       -16 21 34 15 14 20 -23 11 1 16 10 -5 -11 43 3 17
000030 1d c6 e3 09 f7 9f f5 f7 25 fc 50 fc e2 ef 08 fc
       29 -58 -29 9 -9 -97 -11 -9 37 -4 80 -4 -30 -17 8 -4
000040 22 c8 ea e4 e6 13 0f fc 0a 04 34 26 14 11 f7 f5
       34 -56 -22 -28 -26 19 15 -4 10 4 52 38 20 17 -9 -11
000050 ee 2a ea 01 1a c8 fe de 0b df 13 ff ee 1c 13 16
       -18 42 -22 1 26 -56 -2 -34 11 -33 19 -1 -18 28 19 22
000060 e9 e7 23 e5 0f c3 e1 c3 f5 f9 1d 00 09 08 0c fa
       -23 -25 35 -27 15 -61 -31 -61 -11 -7 29 0 9 8 12 -6
000070 13 02 f1 16 f7 ff 19 d6 38 d7 fa e7 0d 08 16 01
       19 2 -15 22 -9 -1 25 -42 56 -41 -6 -25 13 8 22 1
000080 dc f4 52 cd ed 0b f7 08 33 2e f8 18 e7 02 65 10
       -36 -12 82 -51 -19 11 -9 8 51 46 -8 24 -25 2 101 16
000090 e7 0d dc e4 15 bf 2a 38 0b e7 1b eb e4 eb 0a fc
       -25 13 -36 -28 21 -65 42 56 11 -25 27 -21 -28 -21 10 -4
0000a0 11 1b c2 fb ff ee 2e d1 ff 26 0b fd 04 15 00 dd
       17 27 -62 -5 -1 -18 46 -47 -1 38 11 -3 4 21 0 -35
0000b0 fe e3 2a ed cb 99 2b e5 fb f2 0a e5 0b 19 18 09
       -2 -29 42 -19 -53 -103 43 -27 -5 -14 10 -27 11 25 24 9
0000c0 0a f5 08 ef e1 1b 0f 08 22 01 14 f2 00 54 15 00
       10 -11 8 -17 -31 27 15 8 34 1 20 -14 0 84 21 0
0000d0 db 21 02 9f 1a dd f9 09 07 e3 eb 40 fb 18 17 d0
       -37 33 2 -97 26 -35 -7 9 7 -29 -21 64 -5 24 23 -48
0000e0 12 29 07 fa ee ca e9 1c 0d df c6 f7 16 ec 12 46
       18 41 7 -6 -18 -54 -23 28 13 -33 -58 -9 22 -20 18 70
0000f0 de 27 1f 1f 1a e7 e7 e2 fc ba ee 1e 07 ff 1d 20
       -34 39 31 31 26 -25 -25 -30 -4 -70 -18 30 7 -1 29 32

tfl.pseudo_qconst13 i1 [1, 3, 3, 576]
000000 d3 27 0b 68 f0 04 31 2b 1e 29 7f 8d f7 f3 14 38
       -45 39 11 104 -16 4 49 43 30 41 127 -115 -9 -13 20 56
000010 d1 17 ff 0c b3 cf e1 d7 ee e7 bc f7 fa b0 e8 0d
       -47 23 -1 12 -77 -49 -31 -41 -18 -25 -68 -9 -6 -80 -24 13
000020 33 67 11 f5 4c 22 e2 11 2e 1c 11 fd e6 fb f4 03
       51 103 17 -11 76 34 -30 17 46 28 17 -3 -26 -5 -12 3
000030 f3 27 0d 30 bb f1 38 eb e8 1a 06 e5 f7 23 dd 19
       -13 39 13 48 -69 -15 56 -21 -24 26 6 -27 -9 35 -35 25
000040 d4 d0 ee ee 04 05 2e f9 ef ff e4 de f6 f5 1b fa
       -44 -48 -18 -18 4 5 46 -7 -17 -1 -28 -34 -10 -11 27 -6
000050 07 fa f0 0a 2b 6a 13 86 19 ef cc b5 32 9c 00 2e
       7 -6 -16 10 43 106 19 -122 25 -17 -52 -75 50 -100 0 46
000060 ed f2 9e c2 12 23 c9 12 37 06 e0 81 d3 da 14 cf
       -19 -14 -98 -62 18 35 -55 18 55 6 -32 -127 -45 -38 20 -49
000070 e6 03 e2 41 e5 21 07 fe 1e 35 30 e0 c4 4a 85 c7
       -26 3 -30 65 -27 33 7 -2 30 53 48 -32 -60 74 -123 -57
000080 29 42 29 cf 29 ec 38 8e e7 14 6c df f9 19 77 f7
       41 66 41 -49 41 -20 56 -114 -25 20 108 -33 -7 25 119 -9
000090 32 0f 2b f3 f8 19 06 fe 03 7a de fc 0c fa d8 c8
       50 15 43 -13 -8 25 6 -2 3 122 -34 -4 12 -6 -40 -56
0000a0 c6 2d 3f fa f6 10 7f fa 4f fd 25 8d 03 21 2d 23
       -58 45 63 -6 -10 16 127 -6 79 -3 37 -115 3 33 45 35
0000b0 ab 22 c8 eb 81 5c d5 39 02 7c 20 12 8e 0a 1d 23
       -85 34 -56 -21 -127 92 -43 57 2 124 32 18 -114 10 29 35
0000c0 02 f4 0e ff 9d 26 0a b3 d7 cc 2e 04 c9 2c 04 0e
       2 -12 14 -1 -99 38 10 -77 -41 -52 46 4 -55 44 4 14
0000d0 12 30 fe e4 4a ca b1 12 02 d1 f8 14 9f 02 c9 ca
       18 48 -2 -28 74 -54 -79 18 2 -47 -8 20 -97 2 -55 -54
0000e0 fb f7 ff 9f b1 ec 2b f9 f7 4a 22 5a 1f 1e 88 57
       -5 -9 -1 -97 -79 -20 43 -7 -9 74 34 90 31 30 -120 87
0000f0 f9 e6 e9 e3 4c 19 81 de ec 0c 12 03 d9 39 12 95
       -7 -26 -23 -29 76 25 -127 -34 -20 12 18 3 -39 57 18 -107

tfl.pseudo_qconst15 i1 [576, 1, 1, 96]
000000 17 39 a8 9d 36 ba 21 14 1b fc bd 0f 28 cf df 14
       23 57 -88 -99 54 -70 33 20 27 -4 -67 15 40 -49 -33 20
000010 f2 0d 3d 3c 0e e2 0f 08 19 0b bc 16 e5 12 00 1b
       -14 13 61 60 14 -30 15 8 25 11 -68 22 -27 18 0 27
000020 04 0c bf 1d f6 fa f9 fe de 17 09 2c f0 f4 c1 d8
       4 12 -65 29 -10 -6 -7 -2 -34 23 9 44 -16 -12 -63 -40
000030 0b 03 17 ec f2 59 30 23 fd fc 77 1f ff dd 3b f5
       11 3 23 -20 -14 89 48 35 -3 -4 119 31 -1 -35 59 -11
000040 f2 1c 24 fa 08 f8 07 7e e0 5a 10 20 ee cf 17 fe
       -14 28 36 -6 8 -8 7 126 -32 90 16 32 -18 -49 23 -2
000050 db 7f 2e 2a c7 e3 01 e3 1c bc 07 10 04 1b 02 38
       -37 127 46 42 -57 -29 1 -29 28 -68 7 16 4 27 2 56
000060 de f6 ca ca 4b e7 72 fd 9d e3 f5 03 e5 2c 1b e4
       -34 -10 -54 -54 75 -25 114 -3 -99 -29 -11 3 -27 44 27 -28
000070 0a 1b 3b f9 a5 1c 44 0d a9 16 e5 2d 41 8e d7 f4
       10 27 59 -7 -91 28 68 13 -87 22 -27 45 65 -114 -41 -12
000080 14 12 08 21 13 cd e5 f5 e0 11 39 bb 29 b3 bd 0b
       20 18 8 33 19 -51 -27 -11 -32 17 57 -69 41 -77 -67 11
000090 b7 e1 0f 19 c8 cd 3d 02 43 98 11 b0 da 26 df 5c
       -73 -31 15 25 -56 -51 61 2 67 -104 17 -80 -38 38 -33 92
0000a0 a9 93 47 2d 4f 26 43 ec 48 08 26 b8 f7 9b bb 44
       -87 -109 71 45 79 38 67 -20 72 8 38 -72 -9 -101 -69 68
0000b0 2e ab 81 eb 25 18 14 b8 4d 03 bd c7 81 9a 2b 55
       46 -85 -127 -21 37 24 20 -72 77 3 -67 -57 -127 -102 43 85
0000c0 25 31 16 16 d0 00 0f ff fe 09 5f 3c cf ee 31 fd
       37 49 22 22 -48 0 15 -1 -2 9 95 60 -49 -18 49 -3
0000d0 4c 31 2a 06 cd 52 fc 98 0c f8 2a 94 eb d5 eb f2
       76 49 42 6 -51 82 -4 -104 12 -8 42 -108 -21 -43 -21 -14
0000e0 2f 2c b0 15 de b8 a5 dd ea 5d 7f 29 02 f4 04 36
       47 44 -80 21 -34 -72 -91 -35 -22 93 127 41 2 -12 4 54
0000f0 d5 c1 07 fe 2a e0 2c 6e 3e 12 e7 91 09 10 55 e6
       -43 -63 7 -2 42 -32 44 110 62 18 -25 -111 9 16 85 -26

tfl.pseudo_qconst17 i1 [96, 1, 1, 288]
000000 db 0e 0b de f9 e6 2f 58 16 12 01 e2 e9 e0 3c ac
       -37 14 11 -34 -7 -26 47 88 22 18 1 -30 -23 -32 60 -84
000010 10 ef 16 fc b3 13 09 25 37 eb fd 07 12 44 df ff
       16 -17 22 -4 -77 19 9 37 55 -21 -3 7 18 68 -33 -1
000020 0e 11 0a 09 c3 d5 f8 07 1b fa 08 d2 02 0e 0c 0c
       14 17 10 9 -61 -43 -8 7 27 -6 8 -46 2 14 12 12
000030 56 fa d4 02 ff e9 b7 ed ec 0e 17 11 f9 dd 0e e8
       86 -6 -44 2 -1 -23 -73 -19 -20 14 23 17 -7 -35 14 -24
000040 e2 12 13 ef 0b dc 13 50 b8 07 07 db c8 d2 ff b6
       -30 18 19 -17 11 -36 19 80 -72 7 7 -37 -56 -46 -1 -74
000050 39 f2 17 08 58 44 01 08 eb 0c e0 d2 f7 0b c7 fe
       57 -14 23 8 88 68 1 8 -21 12 -32 -46 -9 11 -57 -2
000060 05 db 32 fd 18 1d e3 ff fd 0f eb f4 11 ff e3 d6
       5 -37 50 -3 24 29 -29 -1 -3 15 -21 -12 17 -1 -29 -42
000070 0d ef 07 28 3f f2 50 f3 eb f4 a9 05 39 da 04 11
       13 -17 7 40 63 -14 80 -13 -21 -12 -87 5 57 -38 4 17
000080 2d f0 11 c6 f0 fc ce 49 df f4 e1 2b 13 08 c9 0a
       45 -16 17 -58 -16 -4 -50 73 -33 -12 -31 43 19 8 -55 10
000090 13 05 ef 0d e7 e3 21 e4 cd f3 81 f5 15 04 ed fb
       19 5 -17 13 -25 -29 33 -28 -51 -13 -127 -11 21 4 -19 -5
0000a0 f6 2b d8 e5 ff 50 fa dd 21 ff f3 00 da 07 e3 c8
       -10 43 -40 -27 -1 80 -6 -35 33 -1 -13 0 -38 7 -29 -56
0000b0 dc 28 f9 06 e6 e5 ec 1e 04 20 f2 1f 01 f6 0f 1c
       -36 40 -7 6 -26 -27 -20 30 4 32 -14 31 1 -10 15 28
0000c0 f5 12 2c 07 0e 06 16 da 18 2a de 16 ed f7 19 e0
       -11 18 44 7 14 6 22 -38 24 42 -34 22 -19 -9 25 -32
0000d0 dd 22 07 fb 0a cb 0a f7 2a 20 e1 f8 cd 06 31 fc
       -35 34 7 -5 10 -53 10 -9 42 32 -31 -8 -51 6 49 -4
0000e0 05 0f 1c fa fe 2d fb 00 0c af e5 f3 04 14 17 33
       5 15 28 -6 -2 45 -5 0 12 -81 -27 -13 4 20 23 51
0000f0 f3 c8 32 2c f2 d3 d0 2d fc 02 27 25 db ff 01 f0
       -13 -56 50 44 -14 -45 -48 45 -4 2 39 37 -37 -1 1 -16

tfl.pseudo_qconst19 i1 [1, 3, 3, 288]
000000 42 47 b9 3d bd bd 46 44 44 c0 4a 4c a0 52 4a b3
       66 71 -71 61 -67 -67 70 68 68 -64 74 76 -96 82 74 -77
000010 42 42 6e bd c3 4e 4d a6 a9 48 b8 c3 51 42 3e 43
       66 66 110 -67 -61 78 77 -90 -87 72 -72 -61 81 66 62 67
000020 70 bf 47 41 49 47 b8 b8 4e 7f b9 c2 46 67 49 55
       112 -65 71 65 73 71 -72 -72 78 127 -71 -62 70 103 73 85
000030 49 97 a2 ca 46 47 3e bb ba b0 c8 c4 bd 4e b8 47
       73 -105 -94 -54 70 71 62 -69 -70 -80 -56 -60 -67 78 -72 71
000040 42 3a 4a 4c 3e 45 47 40 5f b3 ee 4f c6 65 42 b5
       66 58 74 76 62 69 71 64 95 -77 -18 79 -58 101 66 -75
000050 51 43 5a 4f 62 ad bf 54 52 44 b5 4a 52 48 c2 50
       81 67 90 79 98 -83 -65 84 82 68 -75 74 82 72 -62 80
000060 6e 9c 4a 46 ac b7 bf f5 ae 4e 4d 41 b7 bf 47 b9
       110 -100 74 70 -84 -73 -65 -11 -82 78 77 65 -73 -65 71 -71
000070 b8 40 b1 43 44 bb 49 bb bd 52 42 4b 4d 43 b8 34
       -72 64 -79 67 68 -69 73 -69 -67 82 66 75 77 67 -72 52
000080 43 cc 45 89 6c 47 50 44 47 37 c9 49 4a 48 70 47
       67 -52 69 -119 108 71 80 68 71 55 -55 73 74 72 112 71
000090 b6 4a 9c 3e 41 4f 3e 61 47 43 3b 41 c6 49 34 59
       -74 74 -100 62 65 79 62 97 71 67 59 65 -58 73 52 89
0000a0 53 ae 48 44 4f b1 49 a1 c6 3f be 46 be 49 c0 a2
       83 -82 72 68 79 -79 73 -95 -58 63 -66 70 -66 73 -64 -94
0000b0 c7 49 c3 4b 46 b5 c1 c0 f4 b4 4b c6 4d 4a c5 c0
       -57 73 -61 75 70 -75 -63 -64 -12 -76 75 -58 77 74 -59 -64
0000c0 50 49 41 3b c1 a9 b1 a1 47 51 4e 44 b6 92 4a 42
       80 73 65 59 -63 -87 -79 -95 71 81 78 68 -74 -110 74 66
0000d0 51 8f 4a 50 aa 41 ae a1 4d 74 45 40 43 c5 3d b9
       81 -113 74 80 -86 65 -82 -95 77 116 69 64 67 -59 61 -71
0000e0 3c 4c b5 59 a5 42 9c 42 0a 4a 47 4d 57 4b c1 bd
       60 76 -75 89 -91 66 -100 66 10 74 71 77 87 75 -63 -67
0000f0 57 6b 3d ac b4 b6 b6 84 42 36 b8 3c 4d 44 44 4c
       87 107 61 -84 -76 -74 -74 -124 66 54 -72 60 77 68 68 76

tfl.pseudo_qconst21 i1 [288, 1, 1, 48]
000000 1b 08 26 fe a3 05 cf ee c9 fc 24 05 08 09 e6 11
       27 8 38 -2 -93 5 -49 -18 -55 -4 36 5 8 9 -26 17
000010 17 c2 08 19 1c 03 03 f0 13 1f b7 3f 00 1d e6 dc
       23 -62 8 25 28 3 3 -16 19 31 -73 63 0 29 -26 -36
000020 f6 de 11 06 d0 18 7f f6 d0 fc e2 f8 d9 d2 df 23
       -10 -34 17 6 -48 24 127 -10 -48 -4 -30 -8 -39 -46 -33 35
000030 fe 21 12 fd eb 65 4f d9 7b 04 2d 54 9c 27 f8 73
       -2 33 18 -3 -21 101 79 -39 123 4 45 84 -100 39 -8 115
000040 31 13 f0 09 fd ff 19 69 ff ec 94 b3 26 12 cb 27
       49 19 -16 9 -3 -1 25 105 -1 -20 -108 -77 38 18 -53 39
000050 22 c7 03 f3 34 5d 93 bc 81 4c e7 17 b2 62 df 37
       34 -57 3 -13 52 93 -109 -68 -127 76 -25 23 -78 98 -33 55
000060 26 dc fb b7 43 c9 ea 27 f9 40 f3 23 df c9 e8 27
       38 -36 -5 -73 67 -55 -22 39 -7 64 -13 35 -33 -55 -24 39
000070 7a c3 b3 62 f8 4a d2 e2 ea 57 63 b7 f8 0b 2f d3
       122 -61 -77 98 -8 74 -46 -30 -22 87 99 -73 -8 11 47 -45
000080 19 f0 1c 17 1a e3 ea 02 3e 0e 81 35 31 e5 d1 1e
       25 -16 28 23 26 -29 -22 2 62 14 -127 53 49 -27 -47 30
000090 1d 15 2f 02 dd d5 54 3b 1a f3 fc d9 3d 14 ab e2
       29 21 47 2 -35 -43 84 59 26 -13 -4 -39 61 20 -85 -30
0000a0 f7 2b eb fd e6 07 d5 f9 f4 ca a6 f2 b8 81 c9 04
       -9 43 -21 -3 -26 7 -43 -7 -12 -54 -90 -14 -72 -127 -55 4
0000b0 5c 3d a1 3c 25 32 2a 00 0b f9 e6 cf fc e0 ed 66
       92 61 -95 60 37 50 42 0 11 -7 -26 -49 -4 -32 -19 102
0000c0 19 f2 fc fc c7 fb 0c 13 c4 03 07 50 08 36 fb f8
       25 -14 -4 -4 -57 -5 12 19 -60 3 7 80 8 54 -5 -8
0000d0 08 7f f5 07 12 c0 0a e2 f7 fb 1c b6 f9 4a 16 24
       8 127 -11 7 18 -64 10 -30 -9 -5 28 -74 -7 74 22 36
0000e0 fa be ec 1f 01 05 32 0f 1d 5a fc ff fb 13 ff f1
       -6 -66 -20 31 1 5 50 15 29 90 -4 -1 -5 19 -1 -15
0000f0 3a f3 33 81 ff 05 de b9 b5 c5 ca 0a d5 94 27 0c
       58 -13 51 -127 -1 5 -34 -71 -75 -59 -54 10 -43 -108 39 12

tfl.pseudo_qconst23 i1 [48, 1, 1, 144]
000000 c3 a0 26 f1 c3 c3 f2 2b fb 0b 35 12 f2 33 5d 99
       -61 -96 38 -15 -61 -61 -14 43 -5 11 53 18 -14 51 93 -103
000010 d6 17 eb 93 f2 f6 a9 c5 47 52 db 16 e9 99 c2 27
       -42 23 -21 -109 -14 -10 -87 -59 71 82 -37 22 -23 -103 -62 39
000020 ff f1 9f b3 b3 7a 26 0d 46 28 2e 35 9e d0 2e da
       -1 -15 -97 -77 -77 122 38 13 70 40 46 53 -98 -48 46 -38
000030 0d 3a 12 06 4a 27 a5 d9 dd 34 0d a7 c2 e5 21 ff
       13 58 18 6 74 39 -91 -39 -35 52 13 -89 -62 -27 33 -1
000040 bc af 0b 39 22 bc 6a 8c 04 1d f1 55 b4 50 af e6
       -68 -81 11 57 34 -68 106 -116 4 29 -15 85 -76 80 -81 -26
000050 26 cc 04 f1 fb fd c4 cf 84 10 d5 0d 12 90 d4 1a
       38 -52 4 -15 -5 -3 -60 -49 -124 16 -43 13 18 -112 -44 26
000060 e5 45 4a e9 0d 82 81 ea 64 e2 3a 09 3f 03 0c 1e
       -27 69 74 -23 13 -126 -127 -22 100 -30 58 9 63 3 12 30
000070 dc f4 25 5a d9 5f 22 2b c6 29 d3 ed 2f 32 9f f2
       -36 -12 37 90 -39 95 34 43 -58 41 -45 -19 47 50 -97 -14
000080 ef 1b bb 52 34 0f 28 45 2f 26 3a 3d f3 c8 e0 fc
       -17 27 -69 82 52 15 40 69 47 38 58 61 -13 -56 -32 -4
000090 27 f9 ef cb 7f 38 07 f9 ed 2b 06 1f e6 f6 c1 15
       39 -7 -17 -53 127 56 7 -7 -19 43 6 31 -26 -10 -63 21
0000a0 3e f1 06 f6 08 d9 10 ee d8 ef f9 29 e0 db 05 bd
       62 -15 6 -10 8 -39 16 -18 -40 -17 -7 41 -32 -37 5 -67
0000b0 e0 10 07 f2 b6 ce ff f9 d3 15 ee d8 1d 7a fc 13
       -32 16 7 -14 -74 -50 -1 -7 -45 21 -18 -40 29 122 -4 19
0000c0 d7 08 d3 ed fe e8 03 0d f7 0d f8 f1 19 24 0d 01
       -41 8 -45 -19 -2 -24 3 13 -9 13 -8 -15 25 36 13 1
0000d0 f0 0f 1e e3 30 f6 25 fb e3 24 2b f6 0d de 06 23
       -16 15 30 -29 48 -10 37 -5 -29 36 43 -10 13 -34 6 35
0000e0 21 ee 26 f7 0f ef f6 e8 e5 13 25 e8 ef f9 25 f3
       33 -18 38 -9 15 -17 -10 -24 -27 19 37 -24 -17 -7 37 -13
0000f0 fc 4a e1 ef 43 2b ec fe 24 02 d3 03 03 c5 fc f9
       -4 74 -31 -17 67 43 -20 -2 36 2 -45 3 3 -59 -4 -7

tfl.pseudo_qconst25 i1 [1, 3, 3, 144]
000000 fa 07 07 00 fc cd f4 50 cc 12 0b ff 4c 24 99 05
       -6 7 7 0 -4 -51 -12 80 -52 18 11 -1 76 36 -103 5
000010 c0 e6 1c 08 81 f7 83 9e 18 25 10 01 28 01 f8 ed
       -64 -26 28 8 -127 -9 -125 -98 24 37 16 1 40 1 -8 -19
000020 8d f0 07 0e fe fa f2 f2 fd fb 0d 07 e5 28 2e 18
       -115 -16 7 14 -2 -6 -14 -14 -3 -5 13 7 -27 40 46 24
000030 1b 08 08 81 03 05 06 13 ac 18 7f a0 81 03 ea 12
       27 8 8 -127 3 5 6 19 -84 24 127 -96 -127 3 -22 18
000040 14 0c 06 df 43 81 f6 eb 81 fb 1b 0f 08 f0 0a 02
       20 12 6 -33 67 -127 -10 -21 -127 -5 27 15 8 -16 10 2
000050 26 fb ff 09 ec d3 16 3b 04 22 09 f2 86 1d 0e c2
       38 -5 -1 9 -20 -45 22 59 4 34 9 -14 -122 29 14 -62
000060 d0 f2 fa eb cd f5 0b 1c 0b 24 4f 37 0f 2b cf ff
       -48 -14 -6 -21 -51 -11 11 28 11 36 79 55 15 43 -49 -1
000070 11 fc f1 ca 7f e8 81 da 02 15 81 f7 f4 1b 0a 00
       17 -4 -15 -54 127 -24 -127 -38 2 21 -127 -9 -12 27 10 0
000080 de d2 f4 d5 f9 01 27 40 93 14 81 f0 2c 39 20 ec
       -34 -46 -12 -43 -7 1 39 64 -109 20 -127 -16 44 57 32 -20
000090 c0 f9 36 14 f4 7f f5 0a b2 17 7a f5 9c 81 57 24
       -64 -7 54 20 -12 127 -11 10 -78 23 122 -11 -100 -127 87 36
0000a0 81 8c d6 14 97 fa 86 a5 e9 91 d0 f2 81 1d f1 09
       -127 -116 -42 20 -105 -6 -122 -91 -23 -111 -48 -14 -127 29 -15 9
0000b0 be e4 24 81 35 ba 81 46 01 d2 62 f6 e4 d7 7f 59
       -66 -28 36 -127 53 -70 -127 70 1 -46 98 -10 -28 -41 127 89
0000c0 7f 02 7f a1 53 32 0a 1c ba ce f9 96 a8 f0 f0 1f
       127 2 127 -95 83 50 10 28 -70 -50 -7 -106 -88 -16 -16 31
0000d0 4e e2 24 0f 7f c7 28 a8 be 71 65 cb 04 1d 7f 81
       78 -30 36 15 127 -57 40 -88 -66 113 101 -53 4 29 127 -127
0000e0 7f 81 0a 35 12 db 21 d1 10 e5 28 e6 95 ed f9 6c
       127 -127 10 53 18 -37 33 -47 16 -27 40 -26 -107 -19 -7 108
0000f0 de 5f 81 ca 4e df 04 47 f9 06 5a 66 ca ce 81 25
       -34 95 -127 -54 78 -33 4 71 -7 6 90 102 -54 -50 -127 37

tfl.pseudo_qconst27 i1 [144, 1, 1, 48]
000000 e6 07 f2 e3 2c aa bc e3 19 fb d2 62 1d 7f ee 02
       -26 7 -14 -29 44 -86 -68 -29 25 -5 -46 98 29 127 -18 2
000010 56 f6 5d 2c 26 0a cb ea 1e b1 dc 3f 5b fb e5 3e
       86 -10 93 44 38 10 -53 -22 30 -79 -36 63 91 -5 -27 62
000020 d4 fb 4f b5 c8 f9 00 05 df 16 c8 e6 39 fe a9 28
       -44 -5 79 -75 -56 -7 0 5 -33 22 -56 -26 57 -2 -87 40
000030 ff 36 74 ce 0b 7f f8 0e 0b 26 08 f3 40 42 c5 fd
       -1 54 116 -50 11 127 -8 14 11 38 8 -13 64 66 -59 -3
000040 41 ed 19 bb 2a 1e f3 18 41 d9 d9 e6 ae 0e 13 ef
       65 -19 25 -69 42 30 -13 24 65 -39 -39 -26 -82 14 19 -17
000050 1c eb 1e ef 1e a7 f6 2f 24 28 f7 29 d0 b6 14 f6
       28 -21 30 -17 30 -89 -10 47 36 40 -9 41 -48 -74 20 -10
000060 4c 6c 1e ab 01 9d 2e 24 ed 2d 93 f6 35 e1 e3 e4
       76 108 30 -85 1 -99 46 36 -19 45 -109 -10 53 -31 -29 -28
000070 08 fc bb 96 eb 02 03 08 c4 f1 0e 09 7f 13 17 d4
       8 -4 -69 -106 -21 2 3 8 -60 -15 14 9 127 19 23 -44
000080 e4 f0 00 18 0e 14 05 eb f0 e8 fe c7 8f 06 0a 19
       -28 -16 0 24 14 20 5 -21 -16 -24 -2 -57 -113 6 10 25
000090 23 44 5a d2 1b 01 23 c9 2d 09 5c 17 20 e2 c7 ce
       35 68 90 -46 27 1 35 -55 45 9 92 23 32 -30 -57 -50
0000a0 8c 08 13 b1 6f f6 d9 03 17 df a2 f6 c3 00 22 ff
       -116 8 19 -79 111 -10 -39 3 23 -33 -94 -10 -61 0 34 -1
0000b0 bd 13 b0 4f 00 7f ea e5 21 f6 22 ea 07 f4 13 12
       -67 19 -80 79 0 127 -22 -27 33 -10 34 -22 7 -12 19 18
0000c0 0d 04 d0 55 7a e6 11 0c 67 0a 05 c8 47 ad 3b c6
       13 4 -48 85 122 -26 17 12 103 10 5 -56 71 -83 59 -58
0000d0 e6 55 25 ed 24 f5 d7 f1 01 1c 05 e7 ee d9 36 f9
       -26 85 37 -19 36 -11 -41 -15 1 28 5 -25 -18 -39 54 -7
0000e0 a0 0d c6 e5 c4 1f a1 fb 17 7f ed 1f 05 06 e5 ee
       -96 13 -58 -27 -60 31 -95 -5 23 127 -19 31 5 6 -27 -18
0000f0 cb f5 fe 74 0a 27 ec 7f fe 36 13 ed 00 a6 14 03
       -53 -11 -2 116 10 39 -20 127 -2 54 19 -19 0 -90 20 3

tfl.pseudo_qconst29 i1 [48, 1, 1, 120]
000000 fd e8 ee 0b fb fc a9 2d ca 2f 0b e1 de e9 ce 33
       -3 -24 -18 11 -5 -4 -87 45 -54 47 11 -31 -34 -23 -50 51
000010 d5 f8 03 c2 ef c7 e5 19 e7 ec 0b 17 b1 cd c7 8e
       -43 -8 3 -62 -17 -57 -27 25 -25 -20 11 23 -79 -51 -57 -114
000020 fd e1 e9 ec 0c f8 f6 08 cf f5 f6 e1 bc 35 e3 de
       -3 -31 -23 -20 12 -8 -10 8 -49 -11 -10 -31 -68 53 -29 -34
000030 0f e8 81 ea e5 f7 ec 1d 02 e4 50 d2 16 e8 1b ef
       15 -24 -127 -22 -27 -9 -20 29 2 -28 80 -46 22 -24 27 -17
000040 fc 0f f2 ce fd 2f d4 ea 0a f2 3d f1 bf c4 b6 25
       -4 15 -14 -50 -3 47 -44 -22 10 -14 61 -15 -65 -60 -74 37
000050 d9 d1 f2 11 94 14 08 2a fe 4b bd e6 06 06 0b 0b
       -39 -47 -14 17 -108 20 8 42 -2 75 -67 -26 6 6 11 11
000060 c6 05 15 ce c3 f4 99 e5 c6 ff 19 09 09 e8 e5 32
       -58 5 21 -50 -61 -12 -103 -27 -58 -1 25 9 9 -24 -27 50
000070 29 16 ed ea d4 eb 42 02 2f fe 14 fc 2c c0 1d b8
       41 22 -19 -22 -44 -21 66 2 47 -2 20 -4 44 -64 29 -72
000080 c9 04 dc 02 a5 fe f3 10 db ff cc 1b 03 1d 81 f5
       -55 4 -36 2 -91 -2 -13 16 -37 -1 -52 27 3 29 -127 -11
000090 36 d5 4a 35 24 db fd a4 46 82 f6 11 d7 26 b7 35
       54 -43 74 53 36 -37 -3 -92 70 -126 -10 17 -41 38 -73 53
0000a0 3a f8 2f e2 c3 21 f6 ed 20 19 fb e7 bc fd 0c 18
       58 -8 47 -30 -61 33 -10 -19 32 25 -5 -25 -68 -3 12 24
0000b0 eb 12 df 82 23 c9 21 38 ec 07 f8 03 c6 cc fa d3
       -21 18 -33 -126 35 -55 33 56 -20 7 -8 3 -58 -52 -6 -45
0000c0 12 02 dc dd e1 03 eb 0e e2 eb ee 32 c9 f4 d8 28
       18 2 -36 -35 -31 3 -21 14 -30 -21 -18 50 -55 -12 -40 40
0000d0 0a f3 34 04 e5 e9 e2 c1 03 13 eb e5 d0 09 e7 0b
       10 -13 52 4 -27 -23 -30 -63 3 19 -21 -27 -48 9 -25 11
0000e0 cb d8 e1 fc 0c 04 0c ed c6 16 13 00 0d e9 a8 fa
       -53 -40 -31 -4 12 4 12 -19 -58 22 19 0 13 -23 -88 -6
0000f0 e5 e9 fd ce e7 35 5d de dd 12 ed 2b f1 4a 15 1e
       -27 -23 -3 -50 -25 53 93 -34 -35 18 -19 43 -15 74 21 30

tfl.pseudo_qconst31 i1 [1, 3, 3, 120]
000000 06 c3 0a fa 0a 25 e8 07 f8 d0 06 00 ca 23 06 07
       6 -61 10 -6 10 37 -24 7 -8 -48 6 0 -54 35 6 7
000010 06 04 74 00 fd 0d f9 fc fe fa 14 fe fa d5 c4 f7
       6 4 116 0 -3 13 -7 -4 -2 -6 20 -2 -6 -43 -60 -9
000020 02 1d f2 3a 0d 20 f0 fb fd fb fb 02 dd ef bc fe
       2 29 -14 58 13 32 -16 -5 -3 -5 -5 2 -35 -17 -68 -2
000030 00 04 12 fd a1 07 f5 0d 11 f5 ff 18 ef 0a f6 08
       0 4 18 -3 -95 7 -11 13 17 -11 -1 24 -17 10 -10 8
000040 ce 2e 11 09 df 03 0f 63 10 10 0c fc 12 05 10 17
       -50 46 17 9 -33 3 15 99 16 16 12 -4 18 5 16 23
000050 f8 10 e7 22 2e ee 00 14 e9 00 01 12 e8 ee e5 f9
       -8 16 -25 34 46 -18 0 20 -23 0 1 18 -24 -18 -27 -7
000060 23 03 0d 02 03 f0 fa 12 28 03 00 01 30 d2 96 05
       35 3 13 2 3 -16 -6 18 40 3 0 1 48 -46 -106 5
000070 d9 f1 10 fe 18 e7 fb fc 07 e5 28 10 16 7f e8 1b
       -39 -15 16 -2 24 -25 -5 -4 7 -27 40 16 22 127 -24 27
000080 e5 bc 1b fa 8c 7f 1f 1a 1c e4 81 eb 04 2c e0 08
       -27 -68 27 -6 -116 127 31 26 28 -28 -127 -21 4 44 -32 8
000090 fb db 3e 05 02 a4 8c e7 f6 34 ee c3 7f 7f db 26
       -5 -37 62 5 2 -92 -116 -25 -10 52 -18 -61 127 127 -37 38
0000a0 e8 f2 00 1e a7 af c3 0d 19 31 0e e2 94 00 e6 f4
       -24 -14 0 30 -89 -81 -61 13 25 49 14 -30 -108 0 -26 -12
0000b0 0f 04 36 40 d1 15 f7 12 c9 7f 22 03 ce 04 14 47
       15 4 54 64 -47 21 -9 18 -55 127 34 3 -50 4 20 71
0000c0 18 1c 18 ea 0c 17 13 7f bd 1d a7 da fc b7 09 24
       24 28 24 -22 12 23 19 127 -67 29 -89 -38 -4 -73 9 36
0000d0 b1 0b 28 36 cb 9a c2 07 23 df 1b e7 f0 e8 fb 2b
       -79 11 40 54 -53 -102 -62 7 35 -33 27 -25 -16 -24 -5 43
0000e0 48 41 14 08 b3 9e 94 f7 89 32 27 f3 1e e0 1a d2
       72 65 20 8 -77 -98 -108 -9 -119 50 39 -13 30 -32 26 -46
0000f0 08 c3 03 f7 08 15 e9 01 f8 da 01 03 db 1b 00 ff
       8 -61 3 -9 8 21 -23 1 -8 -38 1 3 -37 27 0 -1

tfl.pseudo_qconst33 i1 [120, 1, 1, 40]
000000 0e 0e d1 08 07 ae 86 de 16 c7 09 fb c1 ee 1c e7
       14 14 -47 8 7 -82 -122 -34 22 -57 9 -5 -63 -18 28 -25
000010 3f f2 08 6b 95 e9 26 ef 0d 31 0a e3 2b 4e ed 39
       63 -14 8 107 -107 -23 38 -17 13 49 10 -29 43 78 -19 57
000020 0f d9 26 ff f5 e8 81 f8 f7 b0 39 0c 10 f5 04 f1
       15 -39 38 -1 -11 -24 -127 -8 -9 -80 57 12 16 -11 4 -15
000030 11 04 fc bd ec 27 06 ec ff d0 5c df eb ef 09 02
       17 4 -4 -67 -20 39 6 -20 -1 -48 92 -33 -21 -17 9 2
000040 c9 0d 07 e0 ef 4c 02 29 c6 fd b3 eb 54 fe cc 81
       -55 13 7 -32 -17 76 2 41 -58 -3 -77 -21 84 -2 -52 -127
000050 da f5 f3 00 10 0d de f0 81 e8 3d 08 0e 0d f7 e4
       -38 -11 -13 0 16 13 -34 -16 -127 -24 61 8 14 13 -9 -28
000060 07 ff f6 fb ff 05 f0 f6 12 01 29 02 01 11 f0 ff
       7 -1 -10 -5 -1 5 -16 -10 18 1 41 2 1 17 -16 -1
000070 f4 e0 04 fb 00 fd 07 17 27 ad 35 f7 17 23 f7 f1
       -12 -32 4 -5 0 -3 7 23 39 -83 53 -9 23 35 -9 -15
000080 23 19 07 07 23 fc fa 3b fe f4 0e 1c fd 20 a7 f4
       35 25 7 7 35 -4 -6 59 -2 -12 14 28 -3 32 -89 -12
000090 fe 0f a8 97 ff 1b f7 81 bc 98 1e 04 f9 eb 1d 0f
       -2 15 -88 -105 -1 27 -9 -127 -68 -104 30 4 -7 -21 29 15
0000a0 3e 50 17 dc 55 f4 ba e2 b6 d0 b0 42 c8 d2 c0 7f
       62 80 23 -36 85 -12 -70 -30 -74 -48 -80 66 -56 -46 -64 127
0000b0 e2 0d 0b 4d 08 07 ee 79 ee 0e 2e d9 ba 35 be f1
       -30 13 11 77 8 7 -18 121 -18 14 46 -39 -70 53 -66 -15
0000c0 de eb 53 1c b0 a6 02 a5 81 0b 0a f9 a5 06 c9 03
       -34 -21 83 28 -80 -90 2 -91 -127 11 10 -7 -91 6 -55 3
0000d0 fb 26 9a ef f6 00 00 0e 0e 02 06 f5 17 f0 d5 07
       -5 38 -102 -17 -10 0 0 14 14 2 6 -11 23 -16 -43 7
0000e0 fe 0d 03 07 11 10 e4 0f 09 e5 f1 0b f5 11 0b fd
       -2 13 3 7 17 16 -28 15 9 -27 -15 11 -11 17 11 -3
0000f0 d5 0c f6 da 0d 1a ff f0 fc f5 4c a7 bf 43 03 2e
       -43 12 -10 -38 13 26 -1 -16 -4 -11 76 -89 -65 67 3 46

tfl.pseudo_qconst35 i1 [40, 1, 1, 240]
000000 07 1c dc fa 1a ec 1b ff f1 f0 eb 15 f8 ff 06 0e
       7 28 -36 -6 26 -20 27 -1 -15 -16 -21 21 -8 -1 6 14
000010 08 02 92 f9 07 fe 04 f4 0b fe fb f7 ff 09 02 03
       8 2 -110 -7 7 -2 4 -12 11 -2 -5 -9 -1 9 2 3
000020 f0 f2 0a 1b 17 07 e5 e9 f3 22 ee f5 fb fb 15 f1
       -16 -14 10 27 23 7 -27 -23 -13 34 -18 -11 -5 -5 21 -15
000030 06 fb ef 0d f2 f1 07 0a 13 ef f8 10 0b ff c5 fd
       6 -5 -17 13 -14 -15 7 10 19 -17 -8 16 11 -1 -59 -3
000040 02 01 00 04 f7 ae e3 00 f0 ef 07 e5 0b fb 12 fb
       2 1 0 4 -9 -82 -29 0 -16 -17 7 -27 11 -5 18 -5
000050 ea f3 ef fb fb dd fc 0d ef fc 0f 07 0f e6 ec f9
       -22 -13 -17 -5 -5 -35 -4 13 -17 -4 15 7 15 -26 -20 -7
000060 0b fc 0d fc 03 04 02 00 08 1b 2c 19 13 16 fc f9
       11 -4 13 -4 3 4 2 0 8 27 44 25 19 22 -4 -7
000070 d0 ff fb f3 28 f1 ef fb fa 16 1c f3 22 17 f7 d4
       -48 -1 -5 -13 40 -15 -17 -5 -6 22 28 -13 34 23 -9 -44
000080 f4 f3 e1 03 ff f5 f8 f7 0a f6 ee fd 02 05 f2 26
       -12 -13 -31 3 -1 -11 -8 -9 10 -10 -18 -3 2 5 -14 38
000090 04 03 05 ff 0c fe 0b 04 02 17 ea 0b ff d9 de 0c
       4 3 5 -1 12 -2 11 4 2 23 -22 11 -1 -39 -34 12
0000a0 e3 ef 04 f0 3d 07 f2 3e 08 f5 fc f7 db 0f 1e fc
       -29 -17 4 -16 61 7 -14 62 8 -11 -4 -9 -37 15 30 -4
0000b0 11 09 13 f9 fd ef 16 01 00 b4 07 07 f3 01 14 fa
       17 9 19 -7 -3 -17 22 1 0 -76 7 7 -13 1 20 -6
0000c0 11 f1 14 43 0b 00 fd fd 05 09 fe 00 f6 3a 0a f9
       17 -15 20 67 11 0 -3 -3 5 9 -2 0 -10 58 10 -7
0000d0 06 09 f0 ef e1 0d 11 2c df e5 f8 04 fd f5 f6 89
       6 9 -16 -17 -31 13 17 44 -33 -27 -8 4 -3 -11 -10 -119
0000e0 07 ed ff 7f 09 00 01 0e 07 e6 0a e1 00 0c 67 f9
       7 -19 -1 127 9 0 1 14 7 -26 10 -31 0 12 103 -7
0000f0 02 45 19 0e cd 26 0a 12 30 25 eb 23 d2 19 0b dc
       2 69 25 14 -51 38 10 18 48 37 -21 35 -46 25 11 -36

tfl.pseudo_qconst37 i1 [1, 3, 3, 240]
000000 12 07 f3 f1 28 f3 0a f0 11 0d 14 47 fd f4 12 1b
       18 7 -13 -15 40 -13 10 -16 17 13 20 71 -3 -12 18 27
000010 49 df 00 e0 de c4 0f f8 1a 0d 03 e0 06 7f ed ea
       73 -33 0 -32 -34 -60 15 -8 26 13 3 -32 6 127 -19 -22
000020 4a 04 ee 1d 10 1b 1e 06 14 15 09 fb 02 00 0e e0
       74 4 -18 29 16 27 30 6 20 21 9 -5 2 0 14 -32
000030 f7 00 04 09 15 1a 6e 02 f3 c8 28 14 13 0e fc f1
       -9 0 4 9 21 26 110 2 -13 -56 40 20 19 14 -4 -15
000040 00 dd d8 00 25 da 27 25 03 ec 0d 9a f7 06 28 f3
       0 -35 -40 0 37 -38 39 37 3 -20 13 -102 -9 6 40 -13
000050 b3 ef 0d f8 a8 16 c7 fe e6 17 07 df f3 f6 ec e3
       -77 -17 13 -8 -88 22 -57 -2 -26 23 7 -33 -13 -10 -20 -29
000060 23 04 07 0f ed 03 f9 04 06 06 e4 d1 1e 19 2f f3
       35 4 7 15 -19 3 -7 4 6 6 -28 -47 30 25 47 -13
000070 ef ca 0e 96 31 e1 08 42 37 f0 ea 25 0d 14 81 12
       -17 -54 14 -106 49 -31 8 66 55 -16 -22 37 13 20 -127 18
000080 15 e6 f6 0d f3 64 07 b5 18 1f ed 17 e2 01 d1 15
       21 -26 -10 13 -13 100 7 -75 24 31 -19 23 -30 1 -47 21
000090 0c f9 e4 e4 16 f3 10 3b d1 0e 15 fa 0e 09 d6 fd
       12 -7 -28 -28 22 -13 16 59 -47 14 21 -6 14 9 -42 -3
0000a0 03 f2 f4 f2 fe 11 18 fe ef da 1d 05 06 13 0b 12
       3 -14 -12 -14 -2 17 24 -2 -17 -38 29 5 6 19 11 18
0000b0 04 e5 f5 73 e8 f5 fc 15 0a ef f1 e0 0a 01 f8 f4
       4 -27 -11 115 -24 -11 -4 21 10 -17 -15 -32 10 1 -8 -12
0000c0 f5 7f f6 de 4c 33 ab 2b f5 05 fd 08 15 fd 0c 17
       -11 127 -10 -34 76 51 -85 43 -11 5 -3 8 21 -3 12 23
0000d0 f6 1b 9b f7 0d f5 d3 f1 00 0a 21 f4 f5 7f fe f0
       -10 27 -101 -9 13 -11 -45 -15 0 10 33 -12 -11 127 -2 -16
0000e0 12 00 08 f2 fa 95 ed da ef e7 37 36 01 f3 0b 36
       18 0 8 -14 -6 -107 -19 -38 -17 -25 55 54 1 -13 11 54
0000f0 f8 8c 69 f8 1f 81 7f d7 0d 0c 21 f2 db 0c 2f fd
       -8 -116 105 -8 31 -127 127 -41 13 12 33 -14 -37 12 47 -3

tfl.pseudo_qconst39 i1 [240, 1, 1, 40]
000000 d9 43 12 be eb db e6 31 81 fe 71 0f 50 40 02 4c
       -39 67 18 -66 -21 -37 -26 49 -127 -2 113 15 80 64 2 76
000010 ef c3 7d ef f5 07 da 13 1c d8 18 fd 3c c6 d2 fb
       -17 -61 125 -17 -11 7 -38 19 28 -40 24 -3 60 -58 -46 -5
000020 54 c4 1e 9c be b6 c0 0f d9 81 15 11 de 01 21 0d
       84 -60 30 -100 -66 -74 -64 15 -39 -127 21 17 -34 1 33 13
000030 22 f1 e8 ee 95 14 f7 f9 d7 e4 27 0a 1e e9 fe f3
       34 -15 -24 -18 -107 20 -9 -7 -41 -28 39 10 30 -23 -2 -13
000040 fc 2f 15 2a 0f 47 33 2f f0 2b e4 ca d1 fc fb 84
       -4 47 21 42 15 71 51 47 -16 43 -28 -54 -47 -4 -5 -124
000050 3a db fe 20 16 27 09 1a 2b 03 c9 1f 7c ff 0d c7
       58 -37 -2 32 22 39 9 26 43 3 -55 31 124 -1 13 -57
000060 db ff f3 0b 29 33 47 f5 07 25 7f fe e9 18 25 d6
       -37 -1 -13 11 41 51 71 -11 7 37 127 -2 -23 24 37 -42
000070 ee df 18 0c df 14 27 f3 02 07 d9 e5 15 d4 33 05
       -18 -33 24 12 -33 20 39 -13 2 7 -39 -27 21 -44 51 5
000080 fe 01 fa af d3 0c 1a e6 e8 14 fc 73 ad 02 2e 17
       -2 1 -6 -81 -45 12 26 -26 -24 20 -4 115 -83 2 46 23
000090 f7 24 f6 91 e9 1a 0f 2c 26 81 ca 09 d0 13 0b c5
       -9 36 -10 -111 -23 26 15 44 38 -127 -54 9 -48 19 11 -59
0000a0 6d ef fd d7 f9 15 04 f3 e5 e0 a9 dd 81 20 bd f1
       109 -17 -3 -41 -7 21 4 -13 -27 -32 -87 -35 -127 32 -67 -15
0000b0 14 fa fb e2 de dd 0c fb 03 db fe 22 72 12 f4 fd
       20 -6 -5 -30 -34 -35 12 -5 3 -37 -2 34 114 18 -12 -3
0000c0 30 d7 f4 e6 dc fe 18 24 c4 06 fc 2c 7f f2 0a 09
       48 -41 -12 -26 -36 -2 24 36 -60 6 -4 44 127 -14 10 9
0000d0 00 03 fa 06 eb 08 10 2a 11 03 fd 18 03 d6 f6 f9
       0 3 -6 6 -21 8 16 42 17 3 -3 24 3 -42 -10 -7
0000e0 16 01 f8 23 0c ff 1e 1e f8 09 03 04 22 16 21 fc
       22 1 -8 35 12 -1 30 30 -8 9 3 4 34 22 33 -4
0000f0 c3 1b ef 02 b9 13 27 fd f0 07 1d c9 ba 02 1b c3
       -61 27 -17 2 -71 19 39 -3 -16 7 29 -55 -70 2 27 -61

tfl.pseudo_qconst41 i1 [40, 1, 1, 240]
000000 10 00 08 e4 37 05 0a f3 02 50 04 f4 ec fa 0d ed
       16 0 8 -28 55 5 10 -13 2 80 4 -12 -20 -6 13 -19
000010 03 ff 23 b9 81 22 eb f9 25 00 ff 00 fa 13 02 e8
       3 -1 35 -71 -127 34 -21 -7 37 0 -1 0 -6 19 2 -24
000020 f3 d2 e7 0f dd 13 dd 16 1c 03 43 2e e7 f6 10 26
       -13 -46 -25 15 -35 19 -35 22 28 3 67 46 -25 -10 16 38
000030 e7 19 1c 3e 10 0e 0a 0d f1 0e f5 1f 20 34 fa 9e
       -25 25 28 62 16 14 10 13 -15 14 -11 31 32 52 -6 -98
000040 1c f8 28 1e 14 06 08 d5 06 f0 eb 49 fb f6 ed 14
       28 -8 40 30 20 6 8 -43 6 -16 -21 73 -5 -10 -19 20
000050 f9 20 07 15 c6 fa 13 f9 29 08 fc 1f f8 02 dd 0a
       -7 32 7 21 -58 -6 19 -7 41 8 -4 31 -8 2 -35 10
000060 eb 19 03 f2 1b 04 fc f2 20 03 1c df fc f9 fb eb
       -21 25 3 -14 27 4 -4 -14 32 3 28 -33 -4 -7 -5 -21
000070 ea fb 07 ef fe f7 12 1d 04 16 14 07 03 50 1a e7
       -22 -5 7 -17 -2 -9 18 29 4 22 20 7 3 80 26 -25
000080 1e fa db e9 1a 4f 3c ff 01 e3 0a ef eb ff 1a 1a
       30 -6 -37 -23 26 79 60 -1 1 -29 10 -17 -21 -1 26 26
000090 04 3e 0c f8 fd 2d 0b 20 10 f9 02 23 09 09 6f 2e
       4 62 12 -8 -3 45 11 32 16 -7 2 35 9 9 111 46
0000a0 27 1d f2 f0 09 0c 07 11 13 18 f6 dc ce 18 07 00
       39 29 -14 -16 9 12 7 17 19 24 -10 -36 -50 24 7 0
0000b0 07 e2 12 0e 09 13 04 10 bf f7 ff f0 e3 05 2e 1b
       7 -30 18 14 9 19 4 16 -65 -9 -1 -16 -29 5 46 27
0000c0 1c 1e 33 cc 11 cc 0c 21 ef 0a ea e9 08 e6 0f 10
       28 30 51 -52 17 -52 12 33 -17 10 -22 -23 8 -26 15 16
0000d0 cf e8 0b 1d 0a fc 16 fe 17 3a 14 0b 40 2a 45 1d
       -49 -24 11 29 10 -4 22 -2 23 58 20 11 64 42 69 29
0000e0 fe 07 36 f5 01 d8 1b 07 f7 14 08 01 f3 f4 ec 46
       -2 7 54 -11 1 -40 27 7 -9 20 8 1 -13 -12 -20 70
0000f0 e4 22 f3 c8 0f 07 33 0b 19 f1 fc fd df 59 03 fe
       -28 34 -13 -56 15 7 51 11 25 -15 -4 -3 -33 89 3 -2

tfl.pseudo_qconst43 i1 [1, 3, 3, 240]
000000 f8 49 06 04 ef f0 08 d8 11 f1 13 1b e9 e5 f8 0f
       -8 73 6 4 -17 -16 8 -40 17 -15 19 27 -23 -27 -8 15
000010 04 10 dd 06 e9 fb 18 e6 10 17 d7 f3 00 eb e0 fc
       4 16 -35 6 -23 -5 24 -26 16 23 -41 -13 0 -21 -32 -4
000020 e8 ef 07 15 6a ed d8 ef f6 0a 0b 05 fc fd 1d 23
       -24 -17 7 21 106 -19 -40 -17 -10 10 11 5 -4 -3 29 35
000030 e9 01 f0 de f3 d7 19 18 c4 e4 05 f8 25 1e 68 09
       -23 1 -16 -34 -13 -41 25 24 -60 -28 5 -8 37 30 104 9
000040 28 c4 ff e0 00 0e 1c db f1 38 fb f3 08 fa f8 27
       40 -60 -1 -32 0 14 28 -37 -15 56 -5 -13 8 -6 -8 39
000050 05 ef 33 1f ed 03 f9 32 13 33 26 da 07 0c f1 c9
       5 -17 51 31 -19 3 -7 50 19 51 38 -38 7 12 -15 -55
000060 04 19 06 ff 0b d1 f3 7f f5 29 e8 0d f9 08 c7 0f
       4 25 6 -1 11 -47 -13 127 -11 41 -24 13 -7 8 -57 15
000070 f5 15 f2 07 39 03 0c e0 14 0b 20 fc f8 ef 21 06
       -11 21 -14 7 57 3 12 -32 20 11 32 -4 -8 -17 33 6
000080 fd 12 ff 14 1a 0e 05 f4 3c c0 da fd c1 11 f9 d8
       -3 18 -1 20 26 14 5 -12 60 -64 -38 -3 -63 17 -7 -40
000090 00 ff 13 dd 01 00 d8 fa fa 26 ff ff 18 d9 07 03
       0 -1 19 -35 1 0 -40 -6 -6 38 -1 -1 24 -39 7 3
0000a0 fe 08 f9 ea 1c ec 10 24 42 02 00 f8 0e 16 e2 07
       -2 8 -7 -22 28 -20 16 36 66 2 0 -8 14 22 -30 7
0000b0 0b 03 e9 f5 fe f5 fd 1e d7 01 ed a6 0b 09 0a 1a
       11 3 -23 -11 -2 -11 -3 30 -41 1 -19 -90 11 9 10 26
0000c0 00 1b fa e6 af f9 1e f6 de 07 e3 ea 13 0a f6 3e
       0 27 -6 -26 -81 -7 30 -10 -34 7 -29 -22 19 10 -10 62
0000d0 18 e0 d1 eb e2 fb f9 fd 02 e7 08 fb 06 db f7 1c
       24 -32 -47 -21 -30 -5 -7 -3 2 -25 8 -5 6 -37 -9 28
0000e0 2c 08 24 10 f6 1d ff 0a ed fe 0b e5 0f 06 05 00
       44 8 36 16 -10 29 -1 10 -19 -2 11 -27 15 6 5 0
0000f0 e3 7f 12 08 05 1c 0a 51 00 d2 ec c8 81 81 e2 ee
       -29 127 18 8 5 28 10 81 0 -46 -20 -56 -127 -127 -30 -18

tfl.pseudo_qconst45 i1 [240, 1, 1, 40]
000000 d0 36 fc 00 62 fa 0b ba e5 d1 4a f3 50 fd 15 7f
       -48 54 -4 0 98 -6 11 -70 -27 -47 74 -13 80 -3 21 127
000010 20 08 ec d8 19 05 cb e1 bd cc f0 19 28 d9 03 45
       32 8 -20 -40 25 5 -53 -31 -67 -52 -16 25 40 -39 3 69
000020 0b d4 0a 62 73 fa b1 ec ed 94 ee 0e 53 ee 97 f8
       11 -44 10 98 115 -6 -79 -20 -19 -108 -18 14 83 -18 -105 -8
000030 17 6a 29 fb f8 38 0e ff f0 e0 21 22 f2 91 7f 27
       23 106 41 -5 -8 56 14 -1 -16 -32 33 34 -14 -111 127 39
000040 12 99 f2 f8 13 10 cb f3 ee 23 08 07 d4 14 7d eb
       18 -103 -14 -8 19 16 -53 -13 -18 35 8 7 -44 20 125 -21
000050 ee c5 9a fd 05 ee c0 b3 08 1f fe 11 d1 e6 e7 e3
       -18 -59 -102 -3 5 -18 -64 -77 8 31 -2 17 -47 -26 -25 -29
000060 3f fd 2f 02 1b 51 13 ce 15 41 f2 15 04 fc f9 05
       63 -3 47 2 27 81 19 -50 21 65 -14 21 4 -4 -7 5
000070 0f 2b d9 56 cd 81 08 b7 0a 20 91 62 e4 e0 1a de
       15 43 -39 86 -51 -127 8 -73 10 32 -111 98 -28 -32 26 -34
000080 f4 35 13 f3 e9 26 b5 ec 19 f8 00 2c e2 7f 34 28
       -12 53 19 -13 -23 38 -75 -20 25 -8 0 44 -30 127 52 40
000090 dd 16 ce c8 cd a8 d6 fb f4 da ee 83 99 b0 5b 16
       -35 22 -50 -56 -51 -88 -42 -5 -12 -38 -18 -125 -103 -80 91 22
0000a0 81 d7 1e d5 bb e6 f3 fc ff 35 b8 ea e7 e2 1b 18
       -127 -41 30 -43 -69 -26 -13 -4 -1 53 -72 -22 -25 -30 27 24
0000b0 26 64 4e ff 17 f0 d2 28 08 19 e5 00 42 17 0a 3a
       38 100 78 -1 23 -16 -46 40 8 25 -27 0 66 23 10 58
0000c0 d3 fd e3 ea 15 f5 2d 15 f1 ff ce b5 00 0a 26 e8
       -45 -3 -29 -22 21 -11 45 21 -15 -1 -50 -75 0 10 38 -24
0000d0 58 23 fa 7f d9 bd 02 e9 e0 fd f4 d9 ea df 19 f6
       88 35 -6 127 -39 -67 2 -23 -32 -3 -12 -39 -22 -33 25 -10
0000e0 ea 34 db f2 32 06 f4 00 00 2c 08 ec 05 e8 01 37
       -22 52 -37 -14 50 6 -12 0 0 44 8 -20 5 -24 1 55
0000f0 f2 06 10 fd fd 10 f2 ec fd 0d e2 f7 81 11 00 15
       -14 6 16 -3 -3 16 -14 -20 -3 13 -30 -9 -127 17 0 21

tfl.pseudo_qconst47 i1 [40, 1, 1, 96]
000000 b1 16 11 06 02 0a ff 09 fe 0d eb 02 f4 01 f0 81
       -79 22 17 6 2 10 -1 9 -2 13 -21 2 -12 1 -16 -127
000010 ff f6 03 ed 08 f6 e7 06 ce fc f4 f3 fb 0b 18 fc
       -1 -10 3 -19 8 -10 -25 6 -50 -4 -12 -13 -5 11 24 -4
000020 0c 04 02 03 f8 09 fa fe 09 10 ed f8 05 e5 fe 07
       12 4 2 3 -8 9 -6 -2 9 16 -19 -8 5 -27 -2 7
000030 fe ef f5 06 0e f7 e8 ff ed 06 08 02 04 fb fe 27
       -2 -17 -11 6 14 -9 -24 -1 -19 6 8 2 4 -5 -2 39
000040 20 15 03 f9 fe 02 07 03 01 f7 fd f6 fb 22 fb ff
       32 21 3 -7 -2 2 7 3 1 -9 -3 -10 -5 34 -5 -1
000050 f9 16 95 fe dd 03 07 fe ff fa e1 e4 fd fd 21 f2
       -7 22 -107 -2 -35 3 7 -2 -1 -6 -31 -28 -3 -3 33 -14
000060 03 a7 03 48 05 19 00 06 11 14 13 0d 18 f9 2f dc
       3 -89 3 72 5 25 0 6 17 20 19 13 24 -7 47 -36
000070 09 c6 e8 10 11 f0 ff fd 06 0c f3 0c ac ef 07 05
       9 -58 -24 16 17 -16 -1 -3 6 12 -13 12 -84 -17 7 5
000080 e5 fe f6 fd 08 f4 d9 fc 08 fc 0a ff a8 e9 fd d4
       -27 -2 -10 -3 8 -12 -39 -4 8 -4 10 -1 -88 -23 -3 -44
000090 fd 0e f1 07 0c 0c 02 0b 6b 20 fb 0d ff f8 03 12
       -3 14 -15 7 12 12 2 11 107 32 -5 13 -1 -8 3 18
0000a0 fa 01 02 28 fd e3 33 e1 f2 0f 0b 1f 02 06 f4 38
       -6 1 2 40 -3 -29 51 -31 -14 15 11 31 2 6 -12 56
0000b0 e2 0e d7 02 fb f0 0b 04 0d 7f 1d 02 03 15 01 f4
       -30 14 -41 2 -5 -16 11 4 13 127 29 2 3 21 1 -12
0000c0 f4 e7 a3 d6 7f ad 04 dd 00 e4 29 fa 0a 1a ea 0b
       -12 -25 -93 -42 127 -83 4 -35 0 -28 41 -6 10 26 -22 11
0000d0 e4 c4 4a f4 c0 ae fc 0b 45 fa f2 19 fc 4f e0 26
       -28 -60 74 -12 -64 -82 -4 11 69 -6 -14 25 -4 79 -32 38
0000e0 30 4b c1 f5 05 00 d2 02 ce 03 12 fc 1e 0c 0b 24
       48 75 -63 -11 5 0 -46 2 -50 3 18 -4 30 12 11 36
0000f0 01 76 b8 fd 3e f0 1e fd eb f5 b9 e7 e7 e3 ec fa
       1 118 -72 -3 62 -16 30 -3 -21 -11 -71 -25 -25 -29 -20 -6

tfl.pseudo_qconst49 i1 [1, 3, 3, 96]
000000 44 41 4a bc 51 4a b7 a4 48 49 84 6c 41 d2 4b 5b
       68 65 74 -68 81 74 -73 -92 72 73 -124 108 65 -46 75 91
000010 54 43 3a ba 51 4c b5 4a 4b f9 a2 6e 5c 45 b4 bf
       84 67 58 -70 81 76 -75 74 75 -7 -94 110 92 69 -76 -65
000020 4a 4a bb 04 9e bd b6 0a 50 50 64 51 af c1 7f 5a
       74 74 -69 4 -98 -67 -74 10 80 80 100 81 -81 -63 127 90
000030 56 b7 b3 ab 4b 9b e5 ad 46 43 4a aa 81 ac 59 bf
       86 -73 -77 -85 75 -101 -27 -83 70 67 74 -86 -127 -84 89 -65
000040 3c b0 6a 45 a5 c3 41 b4 bd aa b0 c7 7f a3 af ab
       60 -80 106 69 -91 -61 65 -76 -67 -86 -80 -57 127 -93 -81 -85
000050 bc a3 bd e1 54 3f a7 47 4f 51 ba 9d b1 9c 55 c0
       -68 -93 -67 -31 84 63 -89 71 79 81 -70 -99 -79 -100 85 -64
000060 5b 5a 68 9c 66 5e 61 81 60 59 85 7f 57 45 64 68
       91 90 104 -100 102 94 97 -127 96 89 -123 127 87 69 100 104
000070 7f 60 60 a2 67 64 9f 62 5f f6 9f 7f 6e 65 a3 98
       127 96 96 -94 103 100 -97 98 95 -10 -97 127 110 101 -93 -104
000080 66 67 9d 81 4e a0 9e db 65 65 7f 63 99 ad a1 6f
       102 103 -99 -127 78 -96 -98 -37 101 101 127 99 -103 -83 -95 111
000090 a2 9f 90 81 65 8d d2 9a 61 60 6a 89 88 91 ce ad
       -94 -97 -112 -127 101 -115 -46 -102 97 96 106 -119 -120 -111 -50 -83
0000a0 6e 9b d4 61 6d a9 51 a4 01 8e 91 b2 f7 93 9f 9b
       110 -101 -44 97 109 -87 81 -92 1 -114 -111 -78 -9 -109 -97 -101
0000b0 9c 8c a2 60 63 57 81 ce 68 6b 99 8a 9d 81 6c b1
       -100 -116 -94 96 99 87 -127 -50 104 107 -103 -118 -99 -127 108 -79
0000c0 2a 28 35 d1 2f 1f e9 c9 32 21 b4 31 2a e0 31 28
       42 40 53 -47 47 31 -23 -55 50 33 -76 49 42 -32 49 40
0000d0 33 23 23 dc 2f 26 dc 27 2a f6 e6 32 27 2c e2 cd
       51 35 35 -36 47 38 -36 39 42 -10 -26 50 39 44 -30 -51
0000e0 2f 2f d6 d7 49 db d8 0e 2e 29 37 28 d7 da fe 29
       47 47 -42 -41 73 -37 -40 14 46 41 55 40 -41 -38 -2 41
0000f0 08 da d8 e4 2a c9 e6 d8 2c 29 2e bf db c7 e4 e5
       8 -38 -40 -28 42 -55 -26 -40 44 41 46 -65 -37 -57 -28 -27

tfl.pseudo_qconst51 i1 [96, 1, 1, 24]
000000 2b 7f 02 0e 15 05 ef 32 1b b2 08 09 fb 30 fd 92
       43 127 2 14 21 5 -17 50 27 -78 8 9 -5 48 -3 -110
000010 dd 05 08 f6 10 14 1d 08 fc 16 d1 81 34 15 e2 c0
       -35 5 8 -10 16 20 29 8 -4 22 -47 -127 52 21 -30 -64
000020 b2 d8 17 18 da e4 5b 1f ba e0 23 e7 f2 f3 06 da
       -78 -40 23 24 -38 -28 91 31 -70 -32 35 -25 -14 -13 6 -38
000030 ea 08 62 0f 04 e6 42 eb f7 05 27 54 2a fa 32 f9
       -22 8 98 15 4 -26 66 -21 -9 5 39 84 42 -6 50 -7
000040 fc 0d f9 81 e2 03 ea 19 03 77 e5 18 ce 0a bf 51
       -4 13 -7 -127 -30 3 -22 25 3 119 -27 24 -50 10 -65 81
000050 f1 e6 6b 47 06 f3 14 24 81 33 03 f9 a1 23 19 d4
       -15 -26 107 71 6 -13 20 36 -127 51 3 -7 -95 35 25 -44
000060 ce 02 36 04 dc c5 42 05 fa 81 3f 1c 79 e1 0d 46
       -50 2 54 4 -36 -59 66 5 -6 -127 63 28 121 -31 13 70
000070 df 07 01 b3 48 e0 ef fd 0c b4 43 06 17 f2 19 05
       -33 7 1 -77 72 -32 -17 -3 12 -76 67 6 23 -14 25 5
000080 fa 8f 13 3a 14 7f 07 5e d1 05 f9 df 12 ea 06 0b
       -6 -113 19 58 20 127 7 94 -47 5 -7 -33 18 -22 6 11
000090 fe 12 ea 02 00 81 0b f1 08 dc ff c3 5c 04 0e 0d
       -2 18 -22 2 0 -127 11 -15 8 -36 -1 -61 92 4 14 13
0000a0 ec 0e 07 fd e1 f6 01 f2 06 ff eb 11 d0 7f 2e 0b
       -20 14 7 -3 -31 -10 1 -14 6 -1 -21 17 -48 127 46 11
0000b0 fe 00 dc 0a 3e 04 06 eb ca 0d 02 ec 00 15 0f d4
       -2 0 -36 10 62 4 6 -21 -54 13 2 -20 0 21 15 -44
0000c0 bc 81 f6 0d e7 f8 de e4 ee e3 fa 0a 0c f8 f5 cc
       -68 -127 -10 13 -25 -8 -34 -28 -18 -29 -6 10 12 -8 -11 -52
0000d0 2c ee 19 eb df f9 0a 09 cc 5c 05 96 f5 e6 d9 fa
       44 -18 25 -21 -33 -7 10 9 -52 92 5 -106 -11 -26 -39 -6
0000e0 d5 e7 e9 15 02 0d 22 d7 e9 35 81 e4 15 34 6e c5
       -43 -25 -23 21 2 13 34 -41 -23 53 -127 -28 21 52 110 -59
0000f0 11 ee e6 da ec e4 24 26 ee 24 81 25 08 e5 4a 0b
       17 -18 -26 -38 -20 -28 36 38 -18 36 -127 37 8 -27 74 11

tfl.pseudo_qconst53 i1 [24, 1, 1, 88]
000000 f8 ff 0b 33 07 e6 f6 94 24 f9 fe f8 17 0b 23 14
       -8 -1 11 51 7 -26 -10 -108 36 -7 -2 -8 23 11 35 20
000010 05 f0 ff 0d c7 15 7f f8 de ed 24 35 f7 e2 fc 07
       5 -16 -1 13 -57 21 127 -8 -34 -19 36 53 -9 -30 -4 7
000020 16 1f 25 ee f8 fe f5 0d f8 07 cf f3 2d af e3 fd
       22 31 37 -18 -8 -2 -11 13 -8 7 -49 -13 45 -81 -29 -3
000030 fd fb f8 cb fe ff 24 11 bb 06 fa f9 13 f9 0a 15
       -3 -5 -8 -53 -2 -1 36 17 -69 6 -6 -7 19 -7 10 21
000040 13 f8 03 e1 03 16 fb e4 11 03 f1 0a 7d 18 e9 04
       19 -8 3 -31 3 22 -5 -28 17 3 -15 10 125 24 -23 4
000050 09 06 1d d2 ee 0d e2 0b ff ef f6 21 fe 0c 4b 2c
       9 6 29 -46 -18 13 -30 11 -1 -17 -10 33 -2 12 75 44
000060 05 20 38 fe 02 06 e6 f7 22 11 02 06 f0 f7 46 eb
       5 32 56 -2 2 6 -26 -9 34 17 2 6 -16 -9 70 -21
000070 f1 ff 26 22 17 0c f9 0a f1 f5 fc 1a 8f 01 da 0c
       -15 -1 38 34 23 12 -7 10 -15 -11 -4 26 -113 1 -38 12
000080 07 d9 16 fc 7f 3f 00 32 51 dd fe f2 2a da 10 e3
       7 -39 22 -4 127 63 0 50 81 -35 -2 -14 42 -38 16 -29
000090 ba e3 03 fe eb df ea ec d8 ff f1 01 ea ed 0c 1e
       -70 -29 3 -2 -21 -33 -22 -20 -40 -1 -15 1 -22 -19 12 30
0000a0 f7 2e 0b f5 45 e6 ee ae 10 1e ed e4 1f fa fd f9
       -9 46 11 -11 69 -26 -18 -82 16 30 -19 -28 31 -6 -3 -7
0000b0 0f de d4 df 81 02 3c de cf 08 25 23 02 ee fa fa
       15 -34 -44 -33 -127 2 60 -34 -49 8 37 35 2 -18 -6 -6
0000c0 0e f9 09 17 1f e8 ef ee f3 ec e2 c8 f6 f1 0b df
       14 -7 9 23 31 -24 -17 -18 -13 -20 -30 -56 -10 -15 11 -33
0000d0 cd 04 f8 e1 e3 02 ec d6 00 e0 fd f6 23 d5 f6 f9
       -51 4 -8 -31 -29 2 -20 -42 0 -32 -3 -10 35 -43 -10 -7
0000e0 f7 f4 d8 db fb e4 c1 fa 0a 17 38 0d e4 d5 34 e2
       -9 -12 -40 -37 -5 -28 -63 -6 10 23 56 13 -28 -43 52 -30
0000f0 ce f6 2b f9 92 c6 08 2d 25 07 04 c1 ec ef f3 41
       -50 -10 43 -7 -110 -58 8 45 37 7 4 -63 -20 -17 -13 65
